__________________________________________________________________________________________________
Layer (type)                    Output Shape         Param #     Connected to                     
==================================================================================================
input_1 (InputLayer)            (None, 32, 32, 3)    0                                            
__________________________________________________________________________________________________
conv2d_1 (Conv2D)               (None, 32, 32, 60)   1680        input_1[0][0]                    
__________________________________________________________________________________________________
batch_normalization_1 (BatchNor (None, 32, 32, 60)   240         conv2d_1[0][0]                   
__________________________________________________________________________________________________
activation_1 (Activation)       (None, 32, 32, 60)   0           batch_normalization_1[0][0]      
__________________________________________________________________________________________________
conv2d_2 (Conv2D)               (None, 32, 32, 240)  14640       activation_1[0][0]               
__________________________________________________________________________________________________
batch_normalization_2 (BatchNor (None, 32, 32, 240)  960         conv2d_2[0][0]                   
__________________________________________________________________________________________________
activation_2 (Activation)       (None, 32, 32, 240)  0           batch_normalization_2[0][0]      
__________________________________________________________________________________________________
conv2d_3 (Conv2D)               (None, 32, 32, 60)   129660      activation_2[0][0]               
__________________________________________________________________________________________________
concatenate_1 (Concatenate)     (None, 32, 32, 120)  0           conv2d_1[0][0]                   
                                                                 conv2d_3[0][0]                   
__________________________________________________________________________________________________
batch_normalization_3 (BatchNor (None, 32, 32, 120)  480         concatenate_1[0][0]              
__________________________________________________________________________________________________
activation_3 (Activation)       (None, 32, 32, 120)  0           batch_normalization_3[0][0]      
__________________________________________________________________________________________________
conv2d_4 (Conv2D)               (None, 32, 32, 240)  29040       activation_3[0][0]               
__________________________________________________________________________________________________
batch_normalization_4 (BatchNor (None, 32, 32, 240)  960         conv2d_4[0][0]                   
__________________________________________________________________________________________________
activation_4 (Activation)       (None, 32, 32, 240)  0           batch_normalization_4[0][0]      
__________________________________________________________________________________________________
conv2d_5 (Conv2D)               (None, 32, 32, 60)   129660      activation_4[0][0]               
__________________________________________________________________________________________________
concatenate_2 (Concatenate)     (None, 32, 32, 180)  0           concatenate_1[0][0]              
                                                                 conv2d_5[0][0]                   
__________________________________________________________________________________________________
batch_normalization_5 (BatchNor (None, 32, 32, 180)  720         concatenate_2[0][0]              
__________________________________________________________________________________________________
activation_5 (Activation)       (None, 32, 32, 180)  0           batch_normalization_5[0][0]      
__________________________________________________________________________________________________
conv2d_6 (Conv2D)               (None, 32, 32, 240)  43440       activation_5[0][0]               
__________________________________________________________________________________________________
batch_normalization_6 (BatchNor (None, 32, 32, 240)  960         conv2d_6[0][0]                   
__________________________________________________________________________________________________
activation_6 (Activation)       (None, 32, 32, 240)  0           batch_normalization_6[0][0]      
__________________________________________________________________________________________________
conv2d_7 (Conv2D)               (None, 32, 32, 60)   129660      activation_6[0][0]               
__________________________________________________________________________________________________
concatenate_3 (Concatenate)     (None, 32, 32, 240)  0           concatenate_2[0][0]              
                                                                 conv2d_7[0][0]                   
__________________________________________________________________________________________________
batch_normalization_7 (BatchNor (None, 32, 32, 240)  960         concatenate_3[0][0]              
__________________________________________________________________________________________________
activation_7 (Activation)       (None, 32, 32, 240)  0           batch_normalization_7[0][0]      
__________________________________________________________________________________________________
conv2d_8 (Conv2D)               (None, 32, 32, 240)  57840       activation_7[0][0]               
__________________________________________________________________________________________________
batch_normalization_8 (BatchNor (None, 32, 32, 240)  960         conv2d_8[0][0]                   
__________________________________________________________________________________________________
activation_8 (Activation)       (None, 32, 32, 240)  0           batch_normalization_8[0][0]      
__________________________________________________________________________________________________
conv2d_9 (Conv2D)               (None, 32, 32, 60)   129660      activation_8[0][0]               
__________________________________________________________________________________________________
concatenate_4 (Concatenate)     (None, 32, 32, 300)  0           concatenate_3[0][0]              
                                                                 conv2d_9[0][0]                   
__________________________________________________________________________________________________
batch_normalization_9 (BatchNor (None, 32, 32, 300)  1200        concatenate_4[0][0]              
__________________________________________________________________________________________________
activation_9 (Activation)       (None, 32, 32, 300)  0           batch_normalization_9[0][0]      
__________________________________________________________________________________________________
conv2d_10 (Conv2D)              (None, 32, 32, 240)  72240       activation_9[0][0]               
__________________________________________________________________________________________________
batch_normalization_10 (BatchNo (None, 32, 32, 240)  960         conv2d_10[0][0]                  
__________________________________________________________________________________________________
activation_10 (Activation)      (None, 32, 32, 240)  0           batch_normalization_10[0][0]     
__________________________________________________________________________________________________
conv2d_11 (Conv2D)              (None, 32, 32, 60)   129660      activation_10[0][0]              
__________________________________________________________________________________________________
concatenate_5 (Concatenate)     (None, 32, 32, 360)  0           concatenate_4[0][0]              
                                                                 conv2d_11[0][0]                  
__________________________________________________________________________________________________
batch_normalization_11 (BatchNo (None, 32, 32, 360)  1440        concatenate_5[0][0]              
__________________________________________________________________________________________________
activation_11 (Activation)      (None, 32, 32, 360)  0           batch_normalization_11[0][0]     
__________________________________________________________________________________________________
conv2d_12 (Conv2D)              (None, 32, 32, 240)  86640       activation_11[0][0]              
__________________________________________________________________________________________________
batch_normalization_12 (BatchNo (None, 32, 32, 240)  960         conv2d_12[0][0]                  
__________________________________________________________________________________________________
activation_12 (Activation)      (None, 32, 32, 240)  0           batch_normalization_12[0][0]     
__________________________________________________________________________________________________
conv2d_13 (Conv2D)              (None, 32, 32, 60)   129660      activation_12[0][0]              
__________________________________________________________________________________________________
concatenate_6 (Concatenate)     (None, 32, 32, 420)  0           concatenate_5[0][0]              
                                                                 conv2d_13[0][0]                  
__________________________________________________________________________________________________
batch_normalization_13 (BatchNo (None, 32, 32, 420)  1680        concatenate_6[0][0]              
__________________________________________________________________________________________________
activation_13 (Activation)      (None, 32, 32, 420)  0           batch_normalization_13[0][0]     
__________________________________________________________________________________________________
conv2d_14 (Conv2D)              (None, 32, 32, 240)  101040      activation_13[0][0]              
__________________________________________________________________________________________________
batch_normalization_14 (BatchNo (None, 32, 32, 240)  960         conv2d_14[0][0]                  
__________________________________________________________________________________________________
activation_14 (Activation)      (None, 32, 32, 240)  0           batch_normalization_14[0][0]     
__________________________________________________________________________________________________
conv2d_15 (Conv2D)              (None, 32, 32, 60)   129660      activation_14[0][0]              
__________________________________________________________________________________________________
concatenate_7 (Concatenate)     (None, 32, 32, 480)  0           concatenate_6[0][0]              
                                                                 conv2d_15[0][0]                  
__________________________________________________________________________________________________
batch_normalization_15 (BatchNo (None, 32, 32, 480)  1920        concatenate_7[0][0]              
__________________________________________________________________________________________________
activation_15 (Activation)      (None, 32, 32, 480)  0           batch_normalization_15[0][0]     
__________________________________________________________________________________________________
conv2d_16 (Conv2D)              (None, 32, 32, 240)  115440      activation_15[0][0]              
__________________________________________________________________________________________________
batch_normalization_16 (BatchNo (None, 32, 32, 240)  960         conv2d_16[0][0]                  
__________________________________________________________________________________________________
activation_16 (Activation)      (None, 32, 32, 240)  0           batch_normalization_16[0][0]     
__________________________________________________________________________________________________
conv2d_17 (Conv2D)              (None, 32, 32, 60)   129660      activation_16[0][0]              
__________________________________________________________________________________________________
concatenate_8 (Concatenate)     (None, 32, 32, 540)  0           concatenate_7[0][0]              
                                                                 conv2d_17[0][0]                  
__________________________________________________________________________________________________
batch_normalization_17 (BatchNo (None, 32, 32, 540)  2160        concatenate_8[0][0]              
__________________________________________________________________________________________________
activation_17 (Activation)      (None, 32, 32, 540)  0           batch_normalization_17[0][0]     
__________________________________________________________________________________________________
conv2d_18 (Conv2D)              (None, 32, 32, 240)  129840      activation_17[0][0]              
__________________________________________________________________________________________________
batch_normalization_18 (BatchNo (None, 32, 32, 240)  960         conv2d_18[0][0]                  
__________________________________________________________________________________________________
activation_18 (Activation)      (None, 32, 32, 240)  0           batch_normalization_18[0][0]     
__________________________________________________________________________________________________
conv2d_19 (Conv2D)              (None, 32, 32, 60)   129660      activation_18[0][0]              
__________________________________________________________________________________________________
concatenate_9 (Concatenate)     (None, 32, 32, 600)  0           concatenate_8[0][0]              
                                                                 conv2d_19[0][0]                  
__________________________________________________________________________________________________
batch_normalization_19 (BatchNo (None, 32, 32, 600)  2400        concatenate_9[0][0]              
__________________________________________________________________________________________________
activation_19 (Activation)      (None, 32, 32, 600)  0           batch_normalization_19[0][0]     
__________________________________________________________________________________________________
conv2d_20 (Conv2D)              (None, 32, 32, 240)  144240      activation_19[0][0]              
__________________________________________________________________________________________________
batch_normalization_20 (BatchNo (None, 32, 32, 240)  960         conv2d_20[0][0]                  
__________________________________________________________________________________________________
activation_20 (Activation)      (None, 32, 32, 240)  0           batch_normalization_20[0][0]     
__________________________________________________________________________________________________
conv2d_21 (Conv2D)              (None, 32, 32, 60)   129660      activation_20[0][0]              
__________________________________________________________________________________________________
concatenate_10 (Concatenate)    (None, 32, 32, 660)  0           concatenate_9[0][0]              
                                                                 conv2d_21[0][0]                  
__________________________________________________________________________________________________
batch_normalization_21 (BatchNo (None, 32, 32, 660)  2640        concatenate_10[0][0]             
__________________________________________________________________________________________________
activation_21 (Activation)      (None, 32, 32, 660)  0           batch_normalization_21[0][0]     
__________________________________________________________________________________________________
conv2d_22 (Conv2D)              (None, 32, 32, 240)  158640      activation_21[0][0]              
__________________________________________________________________________________________________
batch_normalization_22 (BatchNo (None, 32, 32, 240)  960         conv2d_22[0][0]                  
__________________________________________________________________________________________________
activation_22 (Activation)      (None, 32, 32, 240)  0           batch_normalization_22[0][0]     
__________________________________________________________________________________________________
conv2d_23 (Conv2D)              (None, 32, 32, 60)   129660      activation_22[0][0]              
__________________________________________________________________________________________________
concatenate_11 (Concatenate)    (None, 32, 32, 720)  0           concatenate_10[0][0]             
                                                                 conv2d_23[0][0]                  
__________________________________________________________________________________________________
batch_normalization_23 (BatchNo (None, 32, 32, 720)  2880        concatenate_11[0][0]             
__________________________________________________________________________________________________
activation_23 (Activation)      (None, 32, 32, 720)  0           batch_normalization_23[0][0]     
__________________________________________________________________________________________________
conv2d_24 (Conv2D)              (None, 32, 32, 240)  173040      activation_23[0][0]              
__________________________________________________________________________________________________
batch_normalization_24 (BatchNo (None, 32, 32, 240)  960         conv2d_24[0][0]                  
__________________________________________________________________________________________________
activation_24 (Activation)      (None, 32, 32, 240)  0           batch_normalization_24[0][0]     
__________________________________________________________________________________________________
conv2d_25 (Conv2D)              (None, 32, 32, 60)   129660      activation_24[0][0]              
__________________________________________________________________________________________________
concatenate_12 (Concatenate)    (None, 32, 32, 780)  0           concatenate_11[0][0]             
                                                                 conv2d_25[0][0]                  
__________________________________________________________________________________________________
batch_normalization_25 (BatchNo (None, 32, 32, 780)  3120        concatenate_12[0][0]             
__________________________________________________________________________________________________
activation_25 (Activation)      (None, 32, 32, 780)  0           batch_normalization_25[0][0]     
__________________________________________________________________________________________________
conv2d_26 (Conv2D)              (None, 32, 32, 240)  187440      activation_25[0][0]              
__________________________________________________________________________________________________
batch_normalization_26 (BatchNo (None, 32, 32, 240)  960         conv2d_26[0][0]                  
__________________________________________________________________________________________________
activation_26 (Activation)      (None, 32, 32, 240)  0           batch_normalization_26[0][0]     
__________________________________________________________________________________________________
conv2d_27 (Conv2D)              (None, 32, 32, 60)   129660      activation_26[0][0]              
__________________________________________________________________________________________________
concatenate_13 (Concatenate)    (None, 32, 32, 840)  0           concatenate_12[0][0]             
                                                                 conv2d_27[0][0]                  
__________________________________________________________________________________________________
batch_normalization_27 (BatchNo (None, 32, 32, 840)  3360        concatenate_13[0][0]             
__________________________________________________________________________________________________
activation_27 (Activation)      (None, 32, 32, 840)  0           batch_normalization_27[0][0]     
__________________________________________________________________________________________________
conv2d_28 (Conv2D)              (None, 32, 32, 240)  201840      activation_27[0][0]              
__________________________________________________________________________________________________
batch_normalization_28 (BatchNo (None, 32, 32, 240)  960         conv2d_28[0][0]                  
__________________________________________________________________________________________________
activation_28 (Activation)      (None, 32, 32, 240)  0           batch_normalization_28[0][0]     
__________________________________________________________________________________________________
conv2d_29 (Conv2D)              (None, 32, 32, 60)   129660      activation_28[0][0]              
__________________________________________________________________________________________________
concatenate_14 (Concatenate)    (None, 32, 32, 900)  0           concatenate_13[0][0]             
                                                                 conv2d_29[0][0]                  
__________________________________________________________________________________________________
batch_normalization_29 (BatchNo (None, 32, 32, 900)  3600        concatenate_14[0][0]             
__________________________________________________________________________________________________
activation_29 (Activation)      (None, 32, 32, 900)  0           batch_normalization_29[0][0]     
__________________________________________________________________________________________________
conv2d_30 (Conv2D)              (None, 32, 32, 240)  216240      activation_29[0][0]              
__________________________________________________________________________________________________
batch_normalization_30 (BatchNo (None, 32, 32, 240)  960         conv2d_30[0][0]                  
__________________________________________________________________________________________________
activation_30 (Activation)      (None, 32, 32, 240)  0           batch_normalization_30[0][0]     
__________________________________________________________________________________________________
conv2d_31 (Conv2D)              (None, 32, 32, 60)   129660      activation_30[0][0]              
__________________________________________________________________________________________________
concatenate_15 (Concatenate)    (None, 32, 32, 960)  0           concatenate_14[0][0]             
                                                                 conv2d_31[0][0]                  
__________________________________________________________________________________________________
batch_normalization_31 (BatchNo (None, 32, 32, 960)  3840        concatenate_15[0][0]             
__________________________________________________________________________________________________
activation_31 (Activation)      (None, 32, 32, 960)  0           batch_normalization_31[0][0]     
__________________________________________________________________________________________________
conv2d_32 (Conv2D)              (None, 32, 32, 240)  230640      activation_31[0][0]              
__________________________________________________________________________________________________
batch_normalization_32 (BatchNo (None, 32, 32, 240)  960         conv2d_32[0][0]                  
__________________________________________________________________________________________________
activation_32 (Activation)      (None, 32, 32, 240)  0           batch_normalization_32[0][0]     
__________________________________________________________________________________________________
conv2d_33 (Conv2D)              (None, 32, 32, 60)   129660      activation_32[0][0]              
__________________________________________________________________________________________________
concatenate_16 (Concatenate)    (None, 32, 32, 1020) 0           concatenate_15[0][0]             
                                                                 conv2d_33[0][0]                  
__________________________________________________________________________________________________
batch_normalization_33 (BatchNo (None, 32, 32, 1020) 4080        concatenate_16[0][0]             
__________________________________________________________________________________________________
activation_33 (Activation)      (None, 32, 32, 1020) 0           batch_normalization_33[0][0]     
__________________________________________________________________________________________________
conv2d_34 (Conv2D)              (None, 32, 32, 240)  245040      activation_33[0][0]              
__________________________________________________________________________________________________
batch_normalization_34 (BatchNo (None, 32, 32, 240)  960         conv2d_34[0][0]                  
__________________________________________________________________________________________________
activation_34 (Activation)      (None, 32, 32, 240)  0           batch_normalization_34[0][0]     
__________________________________________________________________________________________________
conv2d_35 (Conv2D)              (None, 32, 32, 60)   129660      activation_34[0][0]              
__________________________________________________________________________________________________
concatenate_17 (Concatenate)    (None, 32, 32, 1080) 0           concatenate_16[0][0]             
                                                                 conv2d_35[0][0]                  
__________________________________________________________________________________________________
batch_normalization_35 (BatchNo (None, 32, 32, 1080) 4320        concatenate_17[0][0]             
__________________________________________________________________________________________________
activation_35 (Activation)      (None, 32, 32, 1080) 0           batch_normalization_35[0][0]     
__________________________________________________________________________________________________
conv2d_36 (Conv2D)              (None, 32, 32, 240)  259440      activation_35[0][0]              
__________________________________________________________________________________________________
batch_normalization_36 (BatchNo (None, 32, 32, 240)  960         conv2d_36[0][0]                  
__________________________________________________________________________________________________
activation_36 (Activation)      (None, 32, 32, 240)  0           batch_normalization_36[0][0]     
__________________________________________________________________________________________________
conv2d_37 (Conv2D)              (None, 32, 32, 60)   129660      activation_36[0][0]              
__________________________________________________________________________________________________
concatenate_18 (Concatenate)    (None, 32, 32, 1140) 0           concatenate_17[0][0]             
                                                                 conv2d_37[0][0]                  
__________________________________________________________________________________________________
batch_normalization_37 (BatchNo (None, 32, 32, 1140) 4560        concatenate_18[0][0]             
__________________________________________________________________________________________________
activation_37 (Activation)      (None, 32, 32, 1140) 0           batch_normalization_37[0][0]     
__________________________________________________________________________________________________
conv2d_38 (Conv2D)              (None, 32, 32, 240)  273840      activation_37[0][0]              
__________________________________________________________________________________________________
batch_normalization_38 (BatchNo (None, 32, 32, 240)  960         conv2d_38[0][0]                  
__________________________________________________________________________________________________
activation_38 (Activation)      (None, 32, 32, 240)  0           batch_normalization_38[0][0]     
__________________________________________________________________________________________________
conv2d_39 (Conv2D)              (None, 32, 32, 60)   129660      activation_38[0][0]              
__________________________________________________________________________________________________
concatenate_19 (Concatenate)    (None, 32, 32, 1200) 0           concatenate_18[0][0]             
                                                                 conv2d_39[0][0]                  
__________________________________________________________________________________________________
batch_normalization_39 (BatchNo (None, 32, 32, 1200) 4800        concatenate_19[0][0]             
__________________________________________________________________________________________________
activation_39 (Activation)      (None, 32, 32, 1200) 0           batch_normalization_39[0][0]     
__________________________________________________________________________________________________
conv2d_40 (Conv2D)              (None, 32, 32, 240)  288240      activation_39[0][0]              
__________________________________________________________________________________________________
batch_normalization_40 (BatchNo (None, 32, 32, 240)  960         conv2d_40[0][0]                  
__________________________________________________________________________________________________
activation_40 (Activation)      (None, 32, 32, 240)  0           batch_normalization_40[0][0]     
__________________________________________________________________________________________________
conv2d_41 (Conv2D)              (None, 32, 32, 60)   129660      activation_40[0][0]              
__________________________________________________________________________________________________
concatenate_20 (Concatenate)    (None, 32, 32, 1260) 0           concatenate_19[0][0]             
                                                                 conv2d_41[0][0]                  
__________________________________________________________________________________________________
batch_normalization_41 (BatchNo (None, 32, 32, 1260) 5040        concatenate_20[0][0]             
__________________________________________________________________________________________________
activation_41 (Activation)      (None, 32, 32, 1260) 0           batch_normalization_41[0][0]     
__________________________________________________________________________________________________
conv2d_42 (Conv2D)              (None, 32, 32, 630)  793800      activation_41[0][0]              
__________________________________________________________________________________________________
average_pooling2d_1 (AveragePoo (None, 16, 16, 630)  0           conv2d_42[0][0]                  
__________________________________________________________________________________________________
batch_normalization_42 (BatchNo (None, 16, 16, 630)  2520        average_pooling2d_1[0][0]        
__________________________________________________________________________________________________
activation_42 (Activation)      (None, 16, 16, 630)  0           batch_normalization_42[0][0]     
__________________________________________________________________________________________________
conv2d_43 (Conv2D)              (None, 16, 16, 240)  151440      activation_42[0][0]              
__________________________________________________________________________________________________
batch_normalization_43 (BatchNo (None, 16, 16, 240)  960         conv2d_43[0][0]                  
__________________________________________________________________________________________________
activation_43 (Activation)      (None, 16, 16, 240)  0           batch_normalization_43[0][0]     
__________________________________________________________________________________________________
conv2d_44 (Conv2D)              (None, 16, 16, 60)   129660      activation_43[0][0]              
__________________________________________________________________________________________________
concatenate_21 (Concatenate)    (None, 16, 16, 690)  0           average_pooling2d_1[0][0]        
                                                                 conv2d_44[0][0]                  
__________________________________________________________________________________________________
batch_normalization_44 (BatchNo (None, 16, 16, 690)  2760        concatenate_21[0][0]             
__________________________________________________________________________________________________
activation_44 (Activation)      (None, 16, 16, 690)  0           batch_normalization_44[0][0]     
__________________________________________________________________________________________________
conv2d_45 (Conv2D)              (None, 16, 16, 240)  165840      activation_44[0][0]              
__________________________________________________________________________________________________
batch_normalization_45 (BatchNo (None, 16, 16, 240)  960         conv2d_45[0][0]                  
__________________________________________________________________________________________________
activation_45 (Activation)      (None, 16, 16, 240)  0           batch_normalization_45[0][0]     
__________________________________________________________________________________________________
conv2d_46 (Conv2D)              (None, 16, 16, 60)   129660      activation_45[0][0]              
__________________________________________________________________________________________________
concatenate_22 (Concatenate)    (None, 16, 16, 750)  0           concatenate_21[0][0]             
                                                                 conv2d_46[0][0]                  
__________________________________________________________________________________________________
batch_normalization_46 (BatchNo (None, 16, 16, 750)  3000        concatenate_22[0][0]             
__________________________________________________________________________________________________
activation_46 (Activation)      (None, 16, 16, 750)  0           batch_normalization_46[0][0]     
__________________________________________________________________________________________________
conv2d_47 (Conv2D)              (None, 16, 16, 240)  180240      activation_46[0][0]              
__________________________________________________________________________________________________
batch_normalization_47 (BatchNo (None, 16, 16, 240)  960         conv2d_47[0][0]                  
__________________________________________________________________________________________________
activation_47 (Activation)      (None, 16, 16, 240)  0           batch_normalization_47[0][0]     
__________________________________________________________________________________________________
conv2d_48 (Conv2D)              (None, 16, 16, 60)   129660      activation_47[0][0]              
__________________________________________________________________________________________________
concatenate_23 (Concatenate)    (None, 16, 16, 810)  0           concatenate_22[0][0]             
                                                                 conv2d_48[0][0]                  
__________________________________________________________________________________________________
batch_normalization_48 (BatchNo (None, 16, 16, 810)  3240        concatenate_23[0][0]             
__________________________________________________________________________________________________
activation_48 (Activation)      (None, 16, 16, 810)  0           batch_normalization_48[0][0]     
__________________________________________________________________________________________________
conv2d_49 (Conv2D)              (None, 16, 16, 240)  194640      activation_48[0][0]              
__________________________________________________________________________________________________
batch_normalization_49 (BatchNo (None, 16, 16, 240)  960         conv2d_49[0][0]                  
__________________________________________________________________________________________________
activation_49 (Activation)      (None, 16, 16, 240)  0           batch_normalization_49[0][0]     
__________________________________________________________________________________________________
conv2d_50 (Conv2D)              (None, 16, 16, 60)   129660      activation_49[0][0]              
__________________________________________________________________________________________________
concatenate_24 (Concatenate)    (None, 16, 16, 870)  0           concatenate_23[0][0]             
                                                                 conv2d_50[0][0]                  
__________________________________________________________________________________________________
batch_normalization_50 (BatchNo (None, 16, 16, 870)  3480        concatenate_24[0][0]             
__________________________________________________________________________________________________
activation_50 (Activation)      (None, 16, 16, 870)  0           batch_normalization_50[0][0]     
__________________________________________________________________________________________________
conv2d_51 (Conv2D)              (None, 16, 16, 240)  209040      activation_50[0][0]              
__________________________________________________________________________________________________
batch_normalization_51 (BatchNo (None, 16, 16, 240)  960         conv2d_51[0][0]                  
__________________________________________________________________________________________________
activation_51 (Activation)      (None, 16, 16, 240)  0           batch_normalization_51[0][0]     
__________________________________________________________________________________________________
conv2d_52 (Conv2D)              (None, 16, 16, 60)   129660      activation_51[0][0]              
__________________________________________________________________________________________________
concatenate_25 (Concatenate)    (None, 16, 16, 930)  0           concatenate_24[0][0]             
                                                                 conv2d_52[0][0]                  
__________________________________________________________________________________________________
batch_normalization_52 (BatchNo (None, 16, 16, 930)  3720        concatenate_25[0][0]             
__________________________________________________________________________________________________
activation_52 (Activation)      (None, 16, 16, 930)  0           batch_normalization_52[0][0]     
__________________________________________________________________________________________________
conv2d_53 (Conv2D)              (None, 16, 16, 240)  223440      activation_52[0][0]              
__________________________________________________________________________________________________
batch_normalization_53 (BatchNo (None, 16, 16, 240)  960         conv2d_53[0][0]                  
__________________________________________________________________________________________________
activation_53 (Activation)      (None, 16, 16, 240)  0           batch_normalization_53[0][0]     
__________________________________________________________________________________________________
conv2d_54 (Conv2D)              (None, 16, 16, 60)   129660      activation_53[0][0]              
__________________________________________________________________________________________________
concatenate_26 (Concatenate)    (None, 16, 16, 990)  0           concatenate_25[0][0]             
                                                                 conv2d_54[0][0]                  
__________________________________________________________________________________________________
batch_normalization_54 (BatchNo (None, 16, 16, 990)  3960        concatenate_26[0][0]             
__________________________________________________________________________________________________
activation_54 (Activation)      (None, 16, 16, 990)  0           batch_normalization_54[0][0]     
__________________________________________________________________________________________________
conv2d_55 (Conv2D)              (None, 16, 16, 240)  237840      activation_54[0][0]              
__________________________________________________________________________________________________
batch_normalization_55 (BatchNo (None, 16, 16, 240)  960         conv2d_55[0][0]                  
__________________________________________________________________________________________________
activation_55 (Activation)      (None, 16, 16, 240)  0           batch_normalization_55[0][0]     
__________________________________________________________________________________________________
conv2d_56 (Conv2D)              (None, 16, 16, 60)   129660      activation_55[0][0]              
__________________________________________________________________________________________________
concatenate_27 (Concatenate)    (None, 16, 16, 1050) 0           concatenate_26[0][0]             
                                                                 conv2d_56[0][0]                  
__________________________________________________________________________________________________
batch_normalization_56 (BatchNo (None, 16, 16, 1050) 4200        concatenate_27[0][0]             
__________________________________________________________________________________________________
activation_56 (Activation)      (None, 16, 16, 1050) 0           batch_normalization_56[0][0]     
__________________________________________________________________________________________________
conv2d_57 (Conv2D)              (None, 16, 16, 240)  252240      activation_56[0][0]              
__________________________________________________________________________________________________
batch_normalization_57 (BatchNo (None, 16, 16, 240)  960         conv2d_57[0][0]                  
__________________________________________________________________________________________________
activation_57 (Activation)      (None, 16, 16, 240)  0           batch_normalization_57[0][0]     
__________________________________________________________________________________________________
conv2d_58 (Conv2D)              (None, 16, 16, 60)   129660      activation_57[0][0]              
__________________________________________________________________________________________________
concatenate_28 (Concatenate)    (None, 16, 16, 1110) 0           concatenate_27[0][0]             
                                                                 conv2d_58[0][0]                  
__________________________________________________________________________________________________
batch_normalization_58 (BatchNo (None, 16, 16, 1110) 4440        concatenate_28[0][0]             
__________________________________________________________________________________________________
activation_58 (Activation)      (None, 16, 16, 1110) 0           batch_normalization_58[0][0]     
__________________________________________________________________________________________________
conv2d_59 (Conv2D)              (None, 16, 16, 240)  266640      activation_58[0][0]              
__________________________________________________________________________________________________
batch_normalization_59 (BatchNo (None, 16, 16, 240)  960         conv2d_59[0][0]                  
__________________________________________________________________________________________________
activation_59 (Activation)      (None, 16, 16, 240)  0           batch_normalization_59[0][0]     
__________________________________________________________________________________________________
conv2d_60 (Conv2D)              (None, 16, 16, 60)   129660      activation_59[0][0]              
__________________________________________________________________________________________________
concatenate_29 (Concatenate)    (None, 16, 16, 1170) 0           concatenate_28[0][0]             
                                                                 conv2d_60[0][0]                  
__________________________________________________________________________________________________
batch_normalization_60 (BatchNo (None, 16, 16, 1170) 4680        concatenate_29[0][0]             
__________________________________________________________________________________________________
activation_60 (Activation)      (None, 16, 16, 1170) 0           batch_normalization_60[0][0]     
__________________________________________________________________________________________________
conv2d_61 (Conv2D)              (None, 16, 16, 240)  281040      activation_60[0][0]              
__________________________________________________________________________________________________
batch_normalization_61 (BatchNo (None, 16, 16, 240)  960         conv2d_61[0][0]                  
__________________________________________________________________________________________________
activation_61 (Activation)      (None, 16, 16, 240)  0           batch_normalization_61[0][0]     
__________________________________________________________________________________________________
conv2d_62 (Conv2D)              (None, 16, 16, 60)   129660      activation_61[0][0]              
__________________________________________________________________________________________________
concatenate_30 (Concatenate)    (None, 16, 16, 1230) 0           concatenate_29[0][0]             
                                                                 conv2d_62[0][0]                  
__________________________________________________________________________________________________
batch_normalization_62 (BatchNo (None, 16, 16, 1230) 4920        concatenate_30[0][0]             
__________________________________________________________________________________________________
activation_62 (Activation)      (None, 16, 16, 1230) 0           batch_normalization_62[0][0]     
__________________________________________________________________________________________________
conv2d_63 (Conv2D)              (None, 16, 16, 240)  295440      activation_62[0][0]              
__________________________________________________________________________________________________
batch_normalization_63 (BatchNo (None, 16, 16, 240)  960         conv2d_63[0][0]                  
__________________________________________________________________________________________________
activation_63 (Activation)      (None, 16, 16, 240)  0           batch_normalization_63[0][0]     
__________________________________________________________________________________________________
conv2d_64 (Conv2D)              (None, 16, 16, 60)   129660      activation_63[0][0]              
__________________________________________________________________________________________________
concatenate_31 (Concatenate)    (None, 16, 16, 1290) 0           concatenate_30[0][0]             
                                                                 conv2d_64[0][0]                  
__________________________________________________________________________________________________
batch_normalization_64 (BatchNo (None, 16, 16, 1290) 5160        concatenate_31[0][0]             
__________________________________________________________________________________________________
activation_64 (Activation)      (None, 16, 16, 1290) 0           batch_normalization_64[0][0]     
__________________________________________________________________________________________________
conv2d_65 (Conv2D)              (None, 16, 16, 240)  309840      activation_64[0][0]              
__________________________________________________________________________________________________
batch_normalization_65 (BatchNo (None, 16, 16, 240)  960         conv2d_65[0][0]                  
__________________________________________________________________________________________________
activation_65 (Activation)      (None, 16, 16, 240)  0           batch_normalization_65[0][0]     
__________________________________________________________________________________________________
conv2d_66 (Conv2D)              (None, 16, 16, 60)   129660      activation_65[0][0]              
__________________________________________________________________________________________________
concatenate_32 (Concatenate)    (None, 16, 16, 1350) 0           concatenate_31[0][0]             
                                                                 conv2d_66[0][0]                  
__________________________________________________________________________________________________
batch_normalization_66 (BatchNo (None, 16, 16, 1350) 5400        concatenate_32[0][0]             
__________________________________________________________________________________________________
activation_66 (Activation)      (None, 16, 16, 1350) 0           batch_normalization_66[0][0]     
__________________________________________________________________________________________________
conv2d_67 (Conv2D)              (None, 16, 16, 240)  324240      activation_66[0][0]              
__________________________________________________________________________________________________
batch_normalization_67 (BatchNo (None, 16, 16, 240)  960         conv2d_67[0][0]                  
__________________________________________________________________________________________________
activation_67 (Activation)      (None, 16, 16, 240)  0           batch_normalization_67[0][0]     
__________________________________________________________________________________________________
conv2d_68 (Conv2D)              (None, 16, 16, 60)   129660      activation_67[0][0]              
__________________________________________________________________________________________________
concatenate_33 (Concatenate)    (None, 16, 16, 1410) 0           concatenate_32[0][0]             
                                                                 conv2d_68[0][0]                  
__________________________________________________________________________________________________
batch_normalization_68 (BatchNo (None, 16, 16, 1410) 5640        concatenate_33[0][0]             
__________________________________________________________________________________________________
activation_68 (Activation)      (None, 16, 16, 1410) 0           batch_normalization_68[0][0]     
__________________________________________________________________________________________________
conv2d_69 (Conv2D)              (None, 16, 16, 240)  338640      activation_68[0][0]              
__________________________________________________________________________________________________
batch_normalization_69 (BatchNo (None, 16, 16, 240)  960         conv2d_69[0][0]                  
__________________________________________________________________________________________________
activation_69 (Activation)      (None, 16, 16, 240)  0           batch_normalization_69[0][0]     
__________________________________________________________________________________________________
conv2d_70 (Conv2D)              (None, 16, 16, 60)   129660      activation_69[0][0]              
__________________________________________________________________________________________________
concatenate_34 (Concatenate)    (None, 16, 16, 1470) 0           concatenate_33[0][0]             
                                                                 conv2d_70[0][0]                  
__________________________________________________________________________________________________
batch_normalization_70 (BatchNo (None, 16, 16, 1470) 5880        concatenate_34[0][0]             
__________________________________________________________________________________________________
activation_70 (Activation)      (None, 16, 16, 1470) 0           batch_normalization_70[0][0]     
__________________________________________________________________________________________________
conv2d_71 (Conv2D)              (None, 16, 16, 240)  353040      activation_70[0][0]              
__________________________________________________________________________________________________
batch_normalization_71 (BatchNo (None, 16, 16, 240)  960         conv2d_71[0][0]                  
__________________________________________________________________________________________________
activation_71 (Activation)      (None, 16, 16, 240)  0           batch_normalization_71[0][0]     
__________________________________________________________________________________________________
conv2d_72 (Conv2D)              (None, 16, 16, 60)   129660      activation_71[0][0]              
__________________________________________________________________________________________________
concatenate_35 (Concatenate)    (None, 16, 16, 1530) 0           concatenate_34[0][0]             
                                                                 conv2d_72[0][0]                  
__________________________________________________________________________________________________
batch_normalization_72 (BatchNo (None, 16, 16, 1530) 6120        concatenate_35[0][0]             
__________________________________________________________________________________________________
activation_72 (Activation)      (None, 16, 16, 1530) 0           batch_normalization_72[0][0]     
__________________________________________________________________________________________________
conv2d_73 (Conv2D)              (None, 16, 16, 240)  367440      activation_72[0][0]              
__________________________________________________________________________________________________
batch_normalization_73 (BatchNo (None, 16, 16, 240)  960         conv2d_73[0][0]                  
__________________________________________________________________________________________________
activation_73 (Activation)      (None, 16, 16, 240)  0           batch_normalization_73[0][0]     
__________________________________________________________________________________________________
conv2d_74 (Conv2D)              (None, 16, 16, 60)   129660      activation_73[0][0]              
__________________________________________________________________________________________________
concatenate_36 (Concatenate)    (None, 16, 16, 1590) 0           concatenate_35[0][0]             
                                                                 conv2d_74[0][0]                  
__________________________________________________________________________________________________
batch_normalization_74 (BatchNo (None, 16, 16, 1590) 6360        concatenate_36[0][0]             
__________________________________________________________________________________________________
activation_74 (Activation)      (None, 16, 16, 1590) 0           batch_normalization_74[0][0]     
__________________________________________________________________________________________________
conv2d_75 (Conv2D)              (None, 16, 16, 240)  381840      activation_74[0][0]              
__________________________________________________________________________________________________
batch_normalization_75 (BatchNo (None, 16, 16, 240)  960         conv2d_75[0][0]                  
__________________________________________________________________________________________________
activation_75 (Activation)      (None, 16, 16, 240)  0           batch_normalization_75[0][0]     
__________________________________________________________________________________________________
conv2d_76 (Conv2D)              (None, 16, 16, 60)   129660      activation_75[0][0]              
__________________________________________________________________________________________________
concatenate_37 (Concatenate)    (None, 16, 16, 1650) 0           concatenate_36[0][0]             
                                                                 conv2d_76[0][0]                  
__________________________________________________________________________________________________
batch_normalization_76 (BatchNo (None, 16, 16, 1650) 6600        concatenate_37[0][0]             
__________________________________________________________________________________________________
activation_76 (Activation)      (None, 16, 16, 1650) 0           batch_normalization_76[0][0]     
__________________________________________________________________________________________________
conv2d_77 (Conv2D)              (None, 16, 16, 240)  396240      activation_76[0][0]              
__________________________________________________________________________________________________
batch_normalization_77 (BatchNo (None, 16, 16, 240)  960         conv2d_77[0][0]                  
__________________________________________________________________________________________________
activation_77 (Activation)      (None, 16, 16, 240)  0           batch_normalization_77[0][0]     
__________________________________________________________________________________________________
conv2d_78 (Conv2D)              (None, 16, 16, 60)   129660      activation_77[0][0]              
__________________________________________________________________________________________________
concatenate_38 (Concatenate)    (None, 16, 16, 1710) 0           concatenate_37[0][0]             
                                                                 conv2d_78[0][0]                  
__________________________________________________________________________________________________
batch_normalization_78 (BatchNo (None, 16, 16, 1710) 6840        concatenate_38[0][0]             
__________________________________________________________________________________________________
activation_78 (Activation)      (None, 16, 16, 1710) 0           batch_normalization_78[0][0]     
__________________________________________________________________________________________________
conv2d_79 (Conv2D)              (None, 16, 16, 240)  410640      activation_78[0][0]              
__________________________________________________________________________________________________
batch_normalization_79 (BatchNo (None, 16, 16, 240)  960         conv2d_79[0][0]                  
__________________________________________________________________________________________________
activation_79 (Activation)      (None, 16, 16, 240)  0           batch_normalization_79[0][0]     
__________________________________________________________________________________________________
conv2d_80 (Conv2D)              (None, 16, 16, 60)   129660      activation_79[0][0]              
__________________________________________________________________________________________________
concatenate_39 (Concatenate)    (None, 16, 16, 1770) 0           concatenate_38[0][0]             
                                                                 conv2d_80[0][0]                  
__________________________________________________________________________________________________
batch_normalization_80 (BatchNo (None, 16, 16, 1770) 7080        concatenate_39[0][0]             
__________________________________________________________________________________________________
activation_80 (Activation)      (None, 16, 16, 1770) 0           batch_normalization_80[0][0]     
__________________________________________________________________________________________________
conv2d_81 (Conv2D)              (None, 16, 16, 240)  425040      activation_80[0][0]              
__________________________________________________________________________________________________
batch_normalization_81 (BatchNo (None, 16, 16, 240)  960         conv2d_81[0][0]                  
__________________________________________________________________________________________________
activation_81 (Activation)      (None, 16, 16, 240)  0           batch_normalization_81[0][0]     
__________________________________________________________________________________________________
conv2d_82 (Conv2D)              (None, 16, 16, 60)   129660      activation_81[0][0]              
__________________________________________________________________________________________________
concatenate_40 (Concatenate)    (None, 16, 16, 1830) 0           concatenate_39[0][0]             
                                                                 conv2d_82[0][0]                  
__________________________________________________________________________________________________
batch_normalization_82 (BatchNo (None, 16, 16, 1830) 7320        concatenate_40[0][0]             
__________________________________________________________________________________________________
activation_82 (Activation)      (None, 16, 16, 1830) 0           batch_normalization_82[0][0]     
__________________________________________________________________________________________________
conv2d_83 (Conv2D)              (None, 16, 16, 630)  1152900     activation_82[0][0]              
__________________________________________________________________________________________________
average_pooling2d_2 (AveragePoo (None, 8, 8, 630)    0           conv2d_83[0][0]                  
__________________________________________________________________________________________________
batch_normalization_83 (BatchNo (None, 8, 8, 630)    2520        average_pooling2d_2[0][0]        
__________________________________________________________________________________________________
activation_83 (Activation)      (None, 8, 8, 630)    0           batch_normalization_83[0][0]     
__________________________________________________________________________________________________
conv2d_84 (Conv2D)              (None, 8, 8, 240)    151440      activation_83[0][0]              
__________________________________________________________________________________________________
batch_normalization_84 (BatchNo (None, 8, 8, 240)    960         conv2d_84[0][0]                  
__________________________________________________________________________________________________
activation_84 (Activation)      (None, 8, 8, 240)    0           batch_normalization_84[0][0]     
__________________________________________________________________________________________________
conv2d_85 (Conv2D)              (None, 8, 8, 60)     129660      activation_84[0][0]              
__________________________________________________________________________________________________
concatenate_41 (Concatenate)    (None, 8, 8, 690)    0           average_pooling2d_2[0][0]        
                                                                 conv2d_85[0][0]                  
__________________________________________________________________________________________________
batch_normalization_85 (BatchNo (None, 8, 8, 690)    2760        concatenate_41[0][0]             
__________________________________________________________________________________________________
activation_85 (Activation)      (None, 8, 8, 690)    0           batch_normalization_85[0][0]     
__________________________________________________________________________________________________
conv2d_86 (Conv2D)              (None, 8, 8, 240)    165840      activation_85[0][0]              
__________________________________________________________________________________________________
batch_normalization_86 (BatchNo (None, 8, 8, 240)    960         conv2d_86[0][0]                  
__________________________________________________________________________________________________
activation_86 (Activation)      (None, 8, 8, 240)    0           batch_normalization_86[0][0]     
__________________________________________________________________________________________________
conv2d_87 (Conv2D)              (None, 8, 8, 60)     129660      activation_86[0][0]              
__________________________________________________________________________________________________
concatenate_42 (Concatenate)    (None, 8, 8, 750)    0           concatenate_41[0][0]             
                                                                 conv2d_87[0][0]                  
__________________________________________________________________________________________________
batch_normalization_87 (BatchNo (None, 8, 8, 750)    3000        concatenate_42[0][0]             
__________________________________________________________________________________________________
activation_87 (Activation)      (None, 8, 8, 750)    0           batch_normalization_87[0][0]     
__________________________________________________________________________________________________
conv2d_88 (Conv2D)              (None, 8, 8, 240)    180240      activation_87[0][0]              
__________________________________________________________________________________________________
batch_normalization_88 (BatchNo (None, 8, 8, 240)    960         conv2d_88[0][0]                  
__________________________________________________________________________________________________
activation_88 (Activation)      (None, 8, 8, 240)    0           batch_normalization_88[0][0]     
__________________________________________________________________________________________________
conv2d_89 (Conv2D)              (None, 8, 8, 60)     129660      activation_88[0][0]              
__________________________________________________________________________________________________
concatenate_43 (Concatenate)    (None, 8, 8, 810)    0           concatenate_42[0][0]             
                                                                 conv2d_89[0][0]                  
__________________________________________________________________________________________________
batch_normalization_89 (BatchNo (None, 8, 8, 810)    3240        concatenate_43[0][0]             
__________________________________________________________________________________________________
activation_89 (Activation)      (None, 8, 8, 810)    0           batch_normalization_89[0][0]     
__________________________________________________________________________________________________
conv2d_90 (Conv2D)              (None, 8, 8, 240)    194640      activation_89[0][0]              
__________________________________________________________________________________________________
batch_normalization_90 (BatchNo (None, 8, 8, 240)    960         conv2d_90[0][0]                  
__________________________________________________________________________________________________
activation_90 (Activation)      (None, 8, 8, 240)    0           batch_normalization_90[0][0]     
__________________________________________________________________________________________________
conv2d_91 (Conv2D)              (None, 8, 8, 60)     129660      activation_90[0][0]              
__________________________________________________________________________________________________
concatenate_44 (Concatenate)    (None, 8, 8, 870)    0           concatenate_43[0][0]             
                                                                 conv2d_91[0][0]                  
__________________________________________________________________________________________________
batch_normalization_91 (BatchNo (None, 8, 8, 870)    3480        concatenate_44[0][0]             
__________________________________________________________________________________________________
activation_91 (Activation)      (None, 8, 8, 870)    0           batch_normalization_91[0][0]     
__________________________________________________________________________________________________
conv2d_92 (Conv2D)              (None, 8, 8, 240)    209040      activation_91[0][0]              
__________________________________________________________________________________________________
batch_normalization_92 (BatchNo (None, 8, 8, 240)    960         conv2d_92[0][0]                  
__________________________________________________________________________________________________
activation_92 (Activation)      (None, 8, 8, 240)    0           batch_normalization_92[0][0]     
__________________________________________________________________________________________________
conv2d_93 (Conv2D)              (None, 8, 8, 60)     129660      activation_92[0][0]              
__________________________________________________________________________________________________
concatenate_45 (Concatenate)    (None, 8, 8, 930)    0           concatenate_44[0][0]             
                                                                 conv2d_93[0][0]                  
__________________________________________________________________________________________________
batch_normalization_93 (BatchNo (None, 8, 8, 930)    3720        concatenate_45[0][0]             
__________________________________________________________________________________________________
activation_93 (Activation)      (None, 8, 8, 930)    0           batch_normalization_93[0][0]     
__________________________________________________________________________________________________
conv2d_94 (Conv2D)              (None, 8, 8, 240)    223440      activation_93[0][0]              
__________________________________________________________________________________________________
batch_normalization_94 (BatchNo (None, 8, 8, 240)    960         conv2d_94[0][0]                  
__________________________________________________________________________________________________
activation_94 (Activation)      (None, 8, 8, 240)    0           batch_normalization_94[0][0]     
__________________________________________________________________________________________________
conv2d_95 (Conv2D)              (None, 8, 8, 60)     129660      activation_94[0][0]              
__________________________________________________________________________________________________
concatenate_46 (Concatenate)    (None, 8, 8, 990)    0           concatenate_45[0][0]             
                                                                 conv2d_95[0][0]                  
__________________________________________________________________________________________________
batch_normalization_95 (BatchNo (None, 8, 8, 990)    3960        concatenate_46[0][0]             
__________________________________________________________________________________________________
activation_95 (Activation)      (None, 8, 8, 990)    0           batch_normalization_95[0][0]     
__________________________________________________________________________________________________
conv2d_96 (Conv2D)              (None, 8, 8, 240)    237840      activation_95[0][0]              
__________________________________________________________________________________________________
batch_normalization_96 (BatchNo (None, 8, 8, 240)    960         conv2d_96[0][0]                  
__________________________________________________________________________________________________
activation_96 (Activation)      (None, 8, 8, 240)    0           batch_normalization_96[0][0]     
__________________________________________________________________________________________________
conv2d_97 (Conv2D)              (None, 8, 8, 60)     129660      activation_96[0][0]              
__________________________________________________________________________________________________
concatenate_47 (Concatenate)    (None, 8, 8, 1050)   0           concatenate_46[0][0]             
                                                                 conv2d_97[0][0]                  
__________________________________________________________________________________________________
batch_normalization_97 (BatchNo (None, 8, 8, 1050)   4200        concatenate_47[0][0]             
__________________________________________________________________________________________________
activation_97 (Activation)      (None, 8, 8, 1050)   0           batch_normalization_97[0][0]     
__________________________________________________________________________________________________
conv2d_98 (Conv2D)              (None, 8, 8, 240)    252240      activation_97[0][0]              
__________________________________________________________________________________________________
batch_normalization_98 (BatchNo (None, 8, 8, 240)    960         conv2d_98[0][0]                  
__________________________________________________________________________________________________
activation_98 (Activation)      (None, 8, 8, 240)    0           batch_normalization_98[0][0]     
__________________________________________________________________________________________________
conv2d_99 (Conv2D)              (None, 8, 8, 60)     129660      activation_98[0][0]              
__________________________________________________________________________________________________
concatenate_48 (Concatenate)    (None, 8, 8, 1110)   0           concatenate_47[0][0]             
                                                                 conv2d_99[0][0]                  
__________________________________________________________________________________________________
batch_normalization_99 (BatchNo (None, 8, 8, 1110)   4440        concatenate_48[0][0]             
__________________________________________________________________________________________________
activation_99 (Activation)      (None, 8, 8, 1110)   0           batch_normalization_99[0][0]     
__________________________________________________________________________________________________
conv2d_100 (Conv2D)             (None, 8, 8, 240)    266640      activation_99[0][0]              
__________________________________________________________________________________________________
batch_normalization_100 (BatchN (None, 8, 8, 240)    960         conv2d_100[0][0]                 
__________________________________________________________________________________________________
activation_100 (Activation)     (None, 8, 8, 240)    0           batch_normalization_100[0][0]    
__________________________________________________________________________________________________
conv2d_101 (Conv2D)             (None, 8, 8, 60)     129660      activation_100[0][0]             
__________________________________________________________________________________________________
concatenate_49 (Concatenate)    (None, 8, 8, 1170)   0           concatenate_48[0][0]             
                                                                 conv2d_101[0][0]                 
__________________________________________________________________________________________________
batch_normalization_101 (BatchN (None, 8, 8, 1170)   4680        concatenate_49[0][0]             
__________________________________________________________________________________________________
activation_101 (Activation)     (None, 8, 8, 1170)   0           batch_normalization_101[0][0]    
__________________________________________________________________________________________________
conv2d_102 (Conv2D)             (None, 8, 8, 240)    281040      activation_101[0][0]             
__________________________________________________________________________________________________
batch_normalization_102 (BatchN (None, 8, 8, 240)    960         conv2d_102[0][0]                 
__________________________________________________________________________________________________
activation_102 (Activation)     (None, 8, 8, 240)    0           batch_normalization_102[0][0]    
__________________________________________________________________________________________________
conv2d_103 (Conv2D)             (None, 8, 8, 60)     129660      activation_102[0][0]             
__________________________________________________________________________________________________
concatenate_50 (Concatenate)    (None, 8, 8, 1230)   0           concatenate_49[0][0]             
                                                                 conv2d_103[0][0]                 
__________________________________________________________________________________________________
batch_normalization_103 (BatchN (None, 8, 8, 1230)   4920        concatenate_50[0][0]             
__________________________________________________________________________________________________
activation_103 (Activation)     (None, 8, 8, 1230)   0           batch_normalization_103[0][0]    
__________________________________________________________________________________________________
conv2d_104 (Conv2D)             (None, 8, 8, 240)    295440      activation_103[0][0]             
__________________________________________________________________________________________________
batch_normalization_104 (BatchN (None, 8, 8, 240)    960         conv2d_104[0][0]                 
__________________________________________________________________________________________________
activation_104 (Activation)     (None, 8, 8, 240)    0           batch_normalization_104[0][0]    
__________________________________________________________________________________________________
conv2d_105 (Conv2D)             (None, 8, 8, 60)     129660      activation_104[0][0]             
__________________________________________________________________________________________________
concatenate_51 (Concatenate)    (None, 8, 8, 1290)   0           concatenate_50[0][0]             
                                                                 conv2d_105[0][0]                 
__________________________________________________________________________________________________
batch_normalization_105 (BatchN (None, 8, 8, 1290)   5160        concatenate_51[0][0]             
__________________________________________________________________________________________________
activation_105 (Activation)     (None, 8, 8, 1290)   0           batch_normalization_105[0][0]    
__________________________________________________________________________________________________
conv2d_106 (Conv2D)             (None, 8, 8, 240)    309840      activation_105[0][0]             
__________________________________________________________________________________________________
batch_normalization_106 (BatchN (None, 8, 8, 240)    960         conv2d_106[0][0]                 
__________________________________________________________________________________________________
activation_106 (Activation)     (None, 8, 8, 240)    0           batch_normalization_106[0][0]    
__________________________________________________________________________________________________
conv2d_107 (Conv2D)             (None, 8, 8, 60)     129660      activation_106[0][0]             
__________________________________________________________________________________________________
concatenate_52 (Concatenate)    (None, 8, 8, 1350)   0           concatenate_51[0][0]             
                                                                 conv2d_107[0][0]                 
__________________________________________________________________________________________________
batch_normalization_107 (BatchN (None, 8, 8, 1350)   5400        concatenate_52[0][0]             
__________________________________________________________________________________________________
activation_107 (Activation)     (None, 8, 8, 1350)   0           batch_normalization_107[0][0]    
__________________________________________________________________________________________________
conv2d_108 (Conv2D)             (None, 8, 8, 240)    324240      activation_107[0][0]             
__________________________________________________________________________________________________
batch_normalization_108 (BatchN (None, 8, 8, 240)    960         conv2d_108[0][0]                 
__________________________________________________________________________________________________
activation_108 (Activation)     (None, 8, 8, 240)    0           batch_normalization_108[0][0]    
__________________________________________________________________________________________________
conv2d_109 (Conv2D)             (None, 8, 8, 60)     129660      activation_108[0][0]             
__________________________________________________________________________________________________
concatenate_53 (Concatenate)    (None, 8, 8, 1410)   0           concatenate_52[0][0]             
                                                                 conv2d_109[0][0]                 
__________________________________________________________________________________________________
batch_normalization_109 (BatchN (None, 8, 8, 1410)   5640        concatenate_53[0][0]             
__________________________________________________________________________________________________
activation_109 (Activation)     (None, 8, 8, 1410)   0           batch_normalization_109[0][0]    
__________________________________________________________________________________________________
conv2d_110 (Conv2D)             (None, 8, 8, 240)    338640      activation_109[0][0]             
__________________________________________________________________________________________________
batch_normalization_110 (BatchN (None, 8, 8, 240)    960         conv2d_110[0][0]                 
__________________________________________________________________________________________________
activation_110 (Activation)     (None, 8, 8, 240)    0           batch_normalization_110[0][0]    
__________________________________________________________________________________________________
conv2d_111 (Conv2D)             (None, 8, 8, 60)     129660      activation_110[0][0]             
__________________________________________________________________________________________________
concatenate_54 (Concatenate)    (None, 8, 8, 1470)   0           concatenate_53[0][0]             
                                                                 conv2d_111[0][0]                 
__________________________________________________________________________________________________
batch_normalization_111 (BatchN (None, 8, 8, 1470)   5880        concatenate_54[0][0]             
__________________________________________________________________________________________________
activation_111 (Activation)     (None, 8, 8, 1470)   0           batch_normalization_111[0][0]    
__________________________________________________________________________________________________
conv2d_112 (Conv2D)             (None, 8, 8, 240)    353040      activation_111[0][0]             
__________________________________________________________________________________________________
batch_normalization_112 (BatchN (None, 8, 8, 240)    960         conv2d_112[0][0]                 
__________________________________________________________________________________________________
activation_112 (Activation)     (None, 8, 8, 240)    0           batch_normalization_112[0][0]    
__________________________________________________________________________________________________
conv2d_113 (Conv2D)             (None, 8, 8, 60)     129660      activation_112[0][0]             
__________________________________________________________________________________________________
concatenate_55 (Concatenate)    (None, 8, 8, 1530)   0           concatenate_54[0][0]             
                                                                 conv2d_113[0][0]                 
__________________________________________________________________________________________________
batch_normalization_113 (BatchN (None, 8, 8, 1530)   6120        concatenate_55[0][0]             
__________________________________________________________________________________________________
activation_113 (Activation)     (None, 8, 8, 1530)   0           batch_normalization_113[0][0]    
__________________________________________________________________________________________________
conv2d_114 (Conv2D)             (None, 8, 8, 240)    367440      activation_113[0][0]             
__________________________________________________________________________________________________
batch_normalization_114 (BatchN (None, 8, 8, 240)    960         conv2d_114[0][0]                 
__________________________________________________________________________________________________
activation_114 (Activation)     (None, 8, 8, 240)    0           batch_normalization_114[0][0]    
__________________________________________________________________________________________________
conv2d_115 (Conv2D)             (None, 8, 8, 60)     129660      activation_114[0][0]             
__________________________________________________________________________________________________
concatenate_56 (Concatenate)    (None, 8, 8, 1590)   0           concatenate_55[0][0]             
                                                                 conv2d_115[0][0]                 
__________________________________________________________________________________________________
batch_normalization_115 (BatchN (None, 8, 8, 1590)   6360        concatenate_56[0][0]             
__________________________________________________________________________________________________
activation_115 (Activation)     (None, 8, 8, 1590)   0           batch_normalization_115[0][0]    
__________________________________________________________________________________________________
conv2d_116 (Conv2D)             (None, 8, 8, 240)    381840      activation_115[0][0]             
__________________________________________________________________________________________________
batch_normalization_116 (BatchN (None, 8, 8, 240)    960         conv2d_116[0][0]                 
__________________________________________________________________________________________________
activation_116 (Activation)     (None, 8, 8, 240)    0           batch_normalization_116[0][0]    
__________________________________________________________________________________________________
conv2d_117 (Conv2D)             (None, 8, 8, 60)     129660      activation_116[0][0]             
__________________________________________________________________________________________________
concatenate_57 (Concatenate)    (None, 8, 8, 1650)   0           concatenate_56[0][0]             
                                                                 conv2d_117[0][0]                 
__________________________________________________________________________________________________
batch_normalization_117 (BatchN (None, 8, 8, 1650)   6600        concatenate_57[0][0]             
__________________________________________________________________________________________________
activation_117 (Activation)     (None, 8, 8, 1650)   0           batch_normalization_117[0][0]    
__________________________________________________________________________________________________
conv2d_118 (Conv2D)             (None, 8, 8, 240)    396240      activation_117[0][0]             
__________________________________________________________________________________________________
batch_normalization_118 (BatchN (None, 8, 8, 240)    960         conv2d_118[0][0]                 
__________________________________________________________________________________________________
activation_118 (Activation)     (None, 8, 8, 240)    0           batch_normalization_118[0][0]    
__________________________________________________________________________________________________
conv2d_119 (Conv2D)             (None, 8, 8, 60)     129660      activation_118[0][0]             
__________________________________________________________________________________________________
concatenate_58 (Concatenate)    (None, 8, 8, 1710)   0           concatenate_57[0][0]             
                                                                 conv2d_119[0][0]                 
__________________________________________________________________________________________________
batch_normalization_119 (BatchN (None, 8, 8, 1710)   6840        concatenate_58[0][0]             
__________________________________________________________________________________________________
activation_119 (Activation)     (None, 8, 8, 1710)   0           batch_normalization_119[0][0]    
__________________________________________________________________________________________________
conv2d_120 (Conv2D)             (None, 8, 8, 240)    410640      activation_119[0][0]             
__________________________________________________________________________________________________
batch_normalization_120 (BatchN (None, 8, 8, 240)    960         conv2d_120[0][0]                 
__________________________________________________________________________________________________
activation_120 (Activation)     (None, 8, 8, 240)    0           batch_normalization_120[0][0]    
__________________________________________________________________________________________________
conv2d_121 (Conv2D)             (None, 8, 8, 60)     129660      activation_120[0][0]             
__________________________________________________________________________________________________
concatenate_59 (Concatenate)    (None, 8, 8, 1770)   0           concatenate_58[0][0]             
                                                                 conv2d_121[0][0]                 
__________________________________________________________________________________________________
batch_normalization_121 (BatchN (None, 8, 8, 1770)   7080        concatenate_59[0][0]             
__________________________________________________________________________________________________
activation_121 (Activation)     (None, 8, 8, 1770)   0           batch_normalization_121[0][0]    
__________________________________________________________________________________________________
conv2d_122 (Conv2D)             (None, 8, 8, 240)    425040      activation_121[0][0]             
__________________________________________________________________________________________________
batch_normalization_122 (BatchN (None, 8, 8, 240)    960         conv2d_122[0][0]                 
__________________________________________________________________________________________________
activation_122 (Activation)     (None, 8, 8, 240)    0           batch_normalization_122[0][0]    
__________________________________________________________________________________________________
conv2d_123 (Conv2D)             (None, 8, 8, 60)     129660      activation_122[0][0]             
__________________________________________________________________________________________________
concatenate_60 (Concatenate)    (None, 8, 8, 1830)   0           concatenate_59[0][0]             
                                                                 conv2d_123[0][0]                 
__________________________________________________________________________________________________
batch_normalization_123 (BatchN (None, 8, 8, 1830)   7320        concatenate_60[0][0]             
__________________________________________________________________________________________________
activation_123 (Activation)     (None, 8, 8, 1830)   0           batch_normalization_123[0][0]    
__________________________________________________________________________________________________
global_average_pooling2d_1 (Glo (None, 1830)         0           activation_123[0][0]             
__________________________________________________________________________________________________
dense_1 (Dense)                 (None, 10)           18310       global_average_pooling2d_1[0][0] 
==================================================================================================
Total params: 24,624,370
Trainable params: 24,464,530
Non-trainable params: 159,840
__________________________________________________________________________________________________
